models/other/float_model.tflite (tflite, 68048 bytes, 4 tensors)

Conv2D_bias f4 [8]
-0.02364861 0.0024537065 -0.003642409 0.009224251 0.0047274865 0.00028512086 -0.09867688 -0.046651263
00000000: bbba c1bc 5dce 203b 7cb5 6ebb 5021 173c
00000010: 08e9 9a3b 467c 9539 1b17 cabd 6515 3fbd

MatMul_bias f4 [4]
0.01719123 -0.020873163 -0.003804143 0.00748607
00000000: 9fd4 8c3c 32fe aabc ee4e 79bb b54d f53b

final_fc_weights/read/transpose f4 [4, 4000]
-0.00064938626 -0.0034964918 -0.0013588383 0.0049353675 0.0035567777 0.0036260525 0.0033072033 0.001422197
0.003485806 -0.0066528227 -0.02239064 0.0043462985 -0.0075601107 -0.011064006 0.01925198 0.0043940404
-0.01584509 0.0025022014 -0.0027601612 -0.007455164 -0.011253873 -0.013705651 0.009251954 0.006795448
0.003831543 -0.008156286 -0.021463146 -0.008666932 0.0071273223 -0.01156129 -0.010291518 0.009581237
-0.004179107 -0.009328608 -0.0014545996 0.014892925 -0.011352033 -0.020731766 -0.0100504765 -0.0020567845
0.0066058715 -0.0058088 -0.004442355 0.0031472363 0.0022368217 -0.0105741145 -0.0047718226 0.01468164
-0.0036487058 -0.017895397 -0.017404195 0.0054977667 0.001284977 -0.016987229 -0.018946856 -0.006356798
0.007150418 0.01180395 -0.014614266 0.0041704974 -0.0021432547 -0.013462777 0.0011634558 0.0017736068
-0.007192958 0.0020694262 -0.0100595 -0.006319095 0.01454509 0.0028996342 -0.0012021826 0.0079142265
-0.0017873523 -0.0028264592 -0.0047733346 0.0146597745 0.0073109902 0.0007577486 -0.005089546 -0.004506061
-0.00036957493 0.017102014 -0.015918776 -0.0043858257 -0.003841365 -0.0061489963 -0.0049116756 -0.010979192
-0.008369542 0.0014718256 -0.016681803 -0.0066771125 0.019340785 -0.014998705 -0.0065520704 0.0163915
-0.0057253917 0.0043995683 -0.004082938 -0.003371943 -0.007733938 -0.02115045 -0.0033709365 -0.008655693
-0.000648509 0.009678375 -0.018154092 -0.006266184 0.008210148 -0.0141269 -0.0048712464 0.005894748
-0.0068216776 -0.01003318 -0.0036535484 -0.01155826 -0.013730058 0.0036682677 0.0010697831 0.010908272
-0.0059422385 0.0051559843 0.0055071195 0.018665394 -0.012432382 0.0007626646 0.0015654152 -0.0033832223
0.009789125 0.01155073 -0.004808679 -0.009816955 0.014881157 0.005557447 -0.0073231235 -0.008420268
-0.0019237987 0.004013611 -0.007723936 -0.00071852293 -0.0015799062 -0.008641795 0.010789628 -0.0014860409
0.013296102 -0.008341931 -0.0013153458 -0.016301172 0.0018214924 0.0025775253 -0.007454978 0.023229975
-0.0029771426 0.005503712 -0.01721115 0.0062363693 -0.009122534 -0.0051356354 -0.0029850653 -0.0057780184
0.0038350623 0.0055589024 -0.019573754 0.014441299 0.010035517 0.0014017433 -0.0052748583 0.0010157323
-0.0059241606 -0.0021615124 -0.008876182 0.0006290325 -0.0008064895 -0.02030443 0.014814012 -0.0014360405
-0.0016021433 0.006670717 -0.0030052979 0.002860387 -0.0073215337 -0.0034736714 -0.014366261 0.010578719
-0.011140792 -0.007123591 0.0014067489 0.0061818226 0.0061879433 -0.016023926 -0.00316016 0.012388769
0.0065164207 -0.0046758936 -0.0019432618 0.004922533 0.01184299 -0.014532729 -0.015467963 0.0042919107
0.010226258 -0.007891701 -0.0072065066 0.003021763 -0.00703768 -0.014772647 -0.008016294 0.012525443
0.0039845863 -0.011460222 -0.001508997 0.008514062 0.009644601 0.0027259742 -0.007268729 -0.0017116342
-0.010505268 -0.002254023 -0.00421102 -0.010446958 0.013838755 0.0045387414 -0.0029811112 -0.0048173987
0.0037856945 -0.00656456 -0.0121180555 -0.003915858 -0.0017222499 0.010468144 -0.0052790963 0.0067498265
0.0037212195 -0.0033741966 0.0048487675 0.0012422565 0.01818193 -0.019005878 0.0009507221 -0.005452916
-0.004621768 -0.004981164 -0.008121356 0.014703943 -0.0136412885 -0.014236114 -0.002394998 0.0010926143
0.012884549 -0.012364128 -0.01607388 -0.00012739266 -0.006481023 -0.0090623135 -0.002290136 0.011656762
00000000: 933b 2aba 6625 65bb 0c1b b2ba ddb8 a13b
00000010: d418 693b 11a3 6d3b aabd 583b 0369 ba3a
00000020: 1f72 643b ecff d9bb 936c b7bc 656b 8e3b
00000030: ceba f7bb ce45 35bc 54b6 9d3c e2fb 8f3b
00000040: 90cd 81bc f9fb 233b d2e3 34bb 734a f4bb
00000050: 2a62 38bc ab8d 60bc 8295 173c 59ac de3b
00000060: a01a 7b3b f1a1 05bc 7bd3 afbc bfff 0dbc
00000070: 508c e93b 916b 3dbc c19d 28bc 9ffa 1c3c
00000080: e4f0 88bb 05d7 18bc 43a8 beba 7401 743c
00000090: e1fd 39bc aad5 a9bc c1aa 24bc 1ecb 06bb
000000a0: 1176 d83b bf57 bebb 2d91 91bb dd41 4e3b
000000b0: a497 123b 0d3f 2dbc f35c 9cbb 438b 703c
000000c0: 201f 6fbb 5e99 92bc 3e93 8ebc 9c26 b43b
000000d0: ac6c a83a cd28 8bbc 7036 9bbc b04c d0bb
000000e0: 0e4e ea3b 5b65 413c ad70 6fbc aba8 883b
000000f0: d975 0cbb fb92 5cbc 197f 983a 5e78 e83a
00000100: e8b2 ebbb 369f 073b 9ad0 24bc 6910 cfbb
00000110: 874e 6e3c ca07 3e3b 8e92 9dba acaa 013c
00000120: 9745 eaba 1e3c 39bb a269 9cbb 8d2f 703c
00000130: 0891 ef3b a6a3 463a 35c6 a6bb 94a7 93bb
00000140: 82c3 c1b9 8619 8c3c 1868 82bc f9b6 8fbb
00000150: 69bf 7bbb 857d c9bb 1ff2 a0bb 12e2 33bc
00000160: 6720 09bc 46ea c03a 47a8 88bc aecb dabb
00000170: 9170 9e3c 21bd 75bc c0b2 d6bb 7847 863c
00000180: 119c bbbb 412a 903b 2bca 85bb d1fb 5cbb
00000190: f96c fdbb b543 adbc eeea 5cbb 9cd0 0dbc
000001a0: b400 2aba 0c92 1e3c e4b7 94bc 9054 cdbb
000001b0: db83 063c 8374 67bc fa9e 9fbb bb28 c13b
000001c0: 6188 dfbb 3562 24bc 5f70 6fbb db5e 3dbc
000001d0: 0af4 60bc 5267 703b f737 8c3a 9cb8 323c
000001e0: 1cb7 c2bb 88f3 a83b 1175 b43b 2be8 983c
000001f0: 31b1 4bbc 8eed 473a 9e2e cd3a 0db9 5dbb
00000200: 9162 203c 463f 3d3c 2092 9dbb 4bd7 20bc
00000210: 19d0 733c 3f1b b63b d0f6 efbb 2af5 09bc
00000220: f927 fcba 9c84 833b 1219 fdbb 425b 3cba
00000230: db14 cfba 5196 0dbc fbc6 303c 42c7 c2ba
00000240: e5d7 593c 98ac 08bc ae67 acba 098a 85bc
00000250: 25bf ee3a b3eb 283b e348 f4bb ca4c be3c
00000260: 2a1c 43bb 7c58 b43b 66fe 8cbc 755a cc3b
00000270: ae76 15bc d548 a8bb 16a1 43bb 8855 bdbb
00000280: ab55 7b3b 7427 b63b 2359 a0bc 339b 6c3c
00000290: 026c 243c b3ba b73a b8d8 acbb 5222 853a
000002a0: 761f c2bb 29a8 0dbb 686d 11bc a8e5 243a
000002b0: 986a 53ba 7a55 a6bc 78b6 723c 8639 bcba
000002c0: 02ff d1ba 0896 da3b 88f4 44bb 5575 3b3b
000002d0: 7ae9 efbb 89a6 63bb 7760 6bbc 5d52 2d3c
000002e0: de87 36bc 036d e9bb a962 b83a e390 ca3b
000002f0: 3bc4 ca3b 9c44 83bc b01a 4fbb 43fa 4a3c
00000300: b387 d53b 3d38 99bb 0cb5 feba 334d a13b
00000310: 1a09 423c af1a 6ebc 576d 7dbc 28a3 8c3b
00000320: 098c 273c 314c 01bc 8f24 ecbb c508 463b
00000330: 579c e6bb f908 72bc c656 03bc 8437 4d3c
00000340: 2291 823b a8c3 3bbc 8ac9 c5ba 907e 0b3c
00000350: 6304 1e3c 42a6 323b 852e eebb ea58 e0ba
00000360: 4a1e 2cbc 3bb8 13bb 99fc 89bb b829 2bbc
00000370: f2bb 623c b9b9 943b bf5e 43bb 45db 9dbb
00000380: 6a19 783b 851b d7bb cf8a 46bc 9950 80bb
00000390: 1ebd e1ba 9482 2b3c 45fc acbb a62d dd3b
000003a0: b4df 733b a021 5dbb 69e2 9e3b 36d3 a23a
000003b0: 45f2 943c 37b2 9bbc e139 793a 60ae b2bb
000003c0: 3372 97bb 0839 a3bb 700f 05bc cfe8 703c
000003d0: b67f 5fbc 973e 69bc 66f5 1cbb 0d36 8f3a
000003e0: b719 533c e992 4abc 5fad 83bc b594 05b9
000003f0: c35e d4bb 197a 14bc 1b16 16bb 01fc 3e3c

first_weights/read f4 [1, 10, 8, 8]
-0.003897646 -0.0025823617 0.030451374 -0.026372092 -0.009877978 -0.0008319098 -0.039240334 0.009818628
0.018590959 -0.0012850085 0.02355882 0.0024798133 0.007275361 -0.009098592 -0.01832071 -0.08295779
0.057548556 -0.007785826 0.018368224 -0.012641518 -0.0037058024 0.009805477 0.032569773 0.028015738
0.0056318995 -0.0019397171 0.01793509 0.022515353 0.055495124 -0.010657001 -0.013811867 -0.02775878
0.033706017 -0.010453186 0.022703603 -0.0039395387 0.03300897 0.016346918 0.03246412 0.037435677
-0.038810816 -0.014140871 -0.011613677 0.0030928815 0.05318976 0.0055473414 0.024234014 0.028988507
0.0043927645 -0.0050116275 -0.0019291438 -0.02648301 -0.022579579 0.0356672 -0.010879085 0.02671598
-0.055088785 0.0030957607 -0.032171693 -0.006476266 -0.034390107 0.0022057632 -0.0021489349 0.025506856
-0.03249369 -0.009972151 0.022379002 -0.0229279 -0.023250155 0.0295243 -0.03561962 0.02711355
-0.00016458456 -0.00047718835 0.02995904 0.029557114 -0.0028084882 -0.0065864176 -0.010533066 -0.049154535
0.048874114 -0.006969394 0.006625547 -0.0069207833 -0.0035472286 0.033258192 0.052864585 0.048356485
0.003265601 -0.008485605 0.017323434 0.040646315 0.056486905 -0.00010839474 -0.0060666637 -0.012154879
0.04506292 0.0033438837 -0.009033158 -0.009941281 0.026023261 0.03627418 0.03740606 0.04192684
-0.020771401 -0.0025609706 -0.021291923 0.0034693284 0.031626772 -0.007226806 0.01766632 0.012727923
0.028972255 0.0060194205 -0.014212153 -0.026850127 -0.036447436 0.025980331 -0.009676128 0.0015225185
-0.03054672 -0.012205561 -0.0348658 -0.0027927675 -0.04720687 0.009319898 -0.008425197 -0.016157016
-0.04681032 0.01480615 0.013414318 -0.032338504 -0.02812526 0.0069022616 -0.027025163 0.058219675
-0.01752089 0.010411453 0.01502229 0.009082532 0.0018039799 -0.009193901 -0.0052200924 -0.028764935
0.03998487 -0.012649332 -0.0074992827 -0.023506863 -0.002874538 -9.206574e-05 0.062063307 0.062251117
-0.01722747 0.012063602 0.021631444 0.020952063 0.039144896 -0.014530156 -0.0031053599 0.00065190287
0.04496224 -0.018122843 -0.01738835 -0.0067605698 0.016965307 -0.0019178856 0.026590494 0.033282038
-0.012124782 0.010685573 -0.014355835 -0.0024610083 0.026439289 -0.02210315 -0.004605606 -0.0031440337
0.048142742 -0.012728652 -0.014181472 -0.025066907 -0.061876506 -0.016121792 -0.02131027 -0.024202267
-0.005108532 0.004416761 -0.029085398 -0.0024307657 -0.06277307 -0.005144682 -0.022023372 -0.039322168
-0.072155446 0.0032507728 0.011425149 -0.030938515 -0.026058173 -0.027456904 -0.0018785443 0.068693966
-0.02823166 0.01153452 0.034534913 0.031694166 0.017660787 -0.032275416 0.0011407272 -0.013719931
0.03036525 0.003299182 -0.012058957 -0.007552485 -0.00073509425 -0.034859125 0.075056 0.06458103
0.0011432527 0.002197703 0.023008654 0.05253264 0.05997562 -0.03893527 -0.005626876 -0.0013860246
0.048975397 -0.0074739982 -0.03384658 -0.0005576363 0.005621257 -0.051377237 0.024192795 0.029109715
-0.011658648 -0.00972124 -0.008975131 0.0048228037 0.037170522 -0.027180228 -0.012031186 -0.014788155
0.06840949 0.012545797 -0.015072519 -0.026018644 -0.05823647 -0.039575562 -0.029167265 -0.027408265
0.011258609 -0.0173018 -0.030242883 0.00277884 -0.052884236 -0.030088695 -0.02084664 -0.061973836
00000000: a66f 7fbb d73c 29bb 2975 f93c 490a d8bc
00000010: 3ed7 21bc 8614 5aba 79ba 20bd 50de 203c
00000020: 114c 983c bb6d a8ba 6dfe c03c 5d84 223b
00000030: 2766 ee3b 4312 15bc 5015 96bc c6e5 a9bd
00000040: 09b8 6b3d 3e20 ffbb f578 963c 5f1e 4fbc
00000050: 0cdd 72bb 27a7 203c e267 053d 4381 e53c
00000060: cc8b b83b 1b3e feba 9cec 923c 1e72 b83c
00000070: db4e 633d b49a 2ebc 2b4b 62bc 6266 e3bc
00000080: 520f 0a3d d743 2bbc e8fc b93c 3f17 81bb
00000090: 6a34 073d f9e9 853c 19f9 043d 2756 193d
000000a0: 17f8 1ebd 1daf 67bc 4b47 3ebc f1b1 4a3b
000000b0: 81dd 593d 79c6 b53b 6986 c63c 4e79 ed3c
000000c0: 2ef1 8f3b 9438 a4bb 53db fcba e6f2 d8bc
000000d0: cff8 b8bc c517 123d 313e 32bc 79db da3c
000000e0: c7a4 61bd 3fe2 4a3b 77c6 03bd db36 d4bb
000000f0: a4dc 0cbd 918e 103b 25d5 0cbb c1f3 d03c
00000100: 1a18 05bd 3c62 23bc 2b54 b73c 4bd3 bbbc
00000110: 1c77 bebc f2dc f13c e1e5 11bd 3c1d de3c
00000120: 5594 2cb9 232f fab9 a96c f53c c321 f23c
00000130: 9d0e 38bb e0d2 d7bb e192 2cbc 4456 49bd
00000140: 3930 483d 845f e4bb 1e1b d93b bdc7 e2bb
00000150: 9f78 68bb be39 083d 8988 583d 7311 463d
00000160: b103 563b 3507 0bbc e0e9 8d3c c07c 263d
00000170: d05e 673d fc51 e3b8 ddca c6bb 4225 47bc
00000180: e593 383d 0f25 5b3b d0ff 13bc c1e0 22bc
00000190: bc2e d53c 3c94 143d 1937 193d 7abb 2b3d
000001a0: c928 aabc f5d5 27bb 666c aebc ac5d 633b
000001b0: 138b 013d d8ce ecbb f5b8 903c c788 503c
000001c0: 3957 ed3c 8f3e c53b 17da 68bc ccf4 dbbc
000001d0: e849 15bd b4d4 d43c 9f88 1ebc 3e8f c73a
000001e0: 1d3d fabc d5f9 47bc 71cf 0ebd dd06 37bb
000001f0: fe5b 41bd 7cb2 183c d609 0abc b85b 84bc
00000200: 2ebc 3fbd 7f95 723c bac7 5b3c 6175 04bd
00000210: f266 e6bc 5e2c e23b e063 ddbc c177 6e3d
00000220: f887 8fbc cd94 2a3c 0d20 763c e6ce 143c
00000230: 8573 ec3a 04a2 16bc 4f0d abbb 71a4 ebbc
00000240: 2dc7 233d 253f 4fbc 8bbc f5bb 7791 c0bc
00000250: bf62 3cbb 6b13 c1b8 1836 7e3d 07fb 7e3d
00000260: a020 8dbc 6aa6 453c 6d34 b13c a9a3 ab3c
00000270: 6656 203d e40f 6ebc 4b83 4bbb 76e4 2a3a
00000280: 532a 383d 5b76 94bc 0372 8ebc c587 ddbb
00000290: d4fa 8a3c 9061 fbba 4fd4 d93c bf52 083d
000002a0: 06a7 46bc 8b12 2f3c bc34 6bbc de48 21bb
000002b0: 3597 d83c aa11 b5bc a0ea 96bb 220c 4ebb
000002c0: 5331 453d d68b 50bc 6859 68bc 1d59 cdbc
000002d0: 3872 7dbd d911 84bc e092 aebc d543 c6bc
000002e0: 7965 a7bb 7aba 903b 8044 eebc 7b4d 1fbb
000002f0: 2b8f 80bd b894 a8bb 5c6a b4bc 4810 21bd
00000300: 3cc6 93bd eb0a 553b 8c30 3b3c c572 fdbc
00000310: f377 d5bc 4ded e0bc 7d39 f6ba 6caf 8c3d
00000320: 1546 e7bc 49fb 3c3c 7b74 0d3d bed1 013d
00000330: 5bad 903c 3a33 04bd 7484 953a 90c9 60bc
00000340: 8bc0 f83c 1737 583b ee92 45bc d67a f7bb
00000350: 57b3 40ba 71c8 0ebd f6b6 993d 0f43 843d
00000360: 32d9 953a 5707 103b a57c bc3c 772c 573d
00000370: ffa8 753d 977a 1fbd a861 b8bb 45ab b5ba
00000380: 6d9a 483d 71e8 f4bb b6a2 0abd 572e 12ba
00000390: 8532 b83b f070 52bd f82f c63c 7f77 ee3c
000003a0: ea03 3fbc d645 1fbc 6e0c 13bc 9c08 9e3b
000003b0: 1e40 183d 12a9 debc 741e 45bc 054a 72bc
000003c0: 461a 8c3d e38c 4d3c baf2 76bc 0d25 d5bc
000003d0: 5d89 6ebd fc19 22bd 30f0 eebc 4c87 e0bc
000003e0: 0776 383c 81bc 8dbc ecbf f7bc 331d 363b
000003f0: 249d 58bd 917c f6bc 93c6 aabc 47d8 7dbd
